main/ml/model.tflite (tflite, 149116 bytes, 10 tensors)

sequential/dense/BiasAdd/ReadVariableOp f4 [128]
00000000: 04e1 673c fc8d 50bb 0020 a0bb 7803 8b3c
00000010: 0000 0000 2294 03bc dd64 ff3b 0503 28bc
00000020: 7da7 9bbb 2eef cb3c 7448 53bc 2cdc d1bb
00000030: 9741 893b 890e 28bc 95b4 5abc 7ffd d83b
00000040: 3566 973b 0000 0000 0975 03bc bcb0 c4bb
00000050: 32a3 0dbc 39c3 f73b 0000 0000 6fb1 35bc
00000060: 5dbe bc3a 91ef c63c 8afe dd3b f599 a93c
00000070: 9270 f1bb b6ea b43b 1902 ddbb 2a8e 00bc
00000080: 4c2c 00bc e5fb f1bb 4820 a6bb defe a7bb
00000090: 0000 0000 d3e1 7a3b 99dd bfbb 1dbe 803a
000000a0: a7ac 8c3b 2290 f9bb 0000 0000 2ba4 a2bb
000000b0: 26b5 d0bb e951 f03b 7a8b 1c3c b0bf 563a
000000c0: 0000 0000 8686 863c 6fb8 333c a6e5 bf3c
000000d0: 0476 cfbb 0000 0000 e9f4 373c a305 953a
000000e0: 388f 5a3c 23e5 bf3b af31 8b3c 188f bb3b
000000f0: 0000 0000 24f2 13bc ce7e 973c 8e05 8e3c
00000100: b9eb a4bb 1b1c 37bc c037 60bb e391 403c
00000110: c975 efbb a0f0 883b dacf 7c3c 271e e63c
00000120: 421a f9bb ca1c c9bb 5b8b e23c afc0 d1bb
00000130: d0fa 033c b112 003c 4dbf 103c 2b2f 8d3c
00000140: 4900 5dbc 8d1b 9abb 5e62 39bb 0000 0000
00000150: 0000 0000 adaa 23bc 6808 663b 8785 2dbc
00000160: 35cc fbbb 5a47 4ebb b06f c93b be5e fb3b
00000170: 0c59 ecb9 7294 8a3c 7276 04bc 0000 0000
00000180: 7b3b 493b 4dcf 90bc 0000 0000 6880 a23a
00000190: ffb1 dcbb bb37 df3b 5d94 38bc 0141 4bbc
000001a0: 40a6 1abc 8f94 c539 f4fd 1cbc 0000 0000
000001b0: bab5 6b3b a252 843c 2e4b 153c c5a5 aa3c
000001c0: 5915 e93b d8d5 733c d031 4ebc cd6f 1dbc
000001d0: 5064 1abc cee5 82bc 571c 07bc e21e 9c3c
000001e0: 0005 e2bb bc2b 34bb 67ec 843c 8746 febb
000001f0: 9d92 19bc bfbe c4bb b158 8bbc 0000 0000
0.014152769 -0.003182291 -0.004886627 0.016969427 0.0 -0.008030923 0.0077940063 -0.010254626
-0.004750191 0.024894323 -0.012895692 -0.0064044204 0.004188727 -0.010257372 -0.013348718 0.006622016
0.0046203383 0.0 -0.008023509 -0.0060025137 -0.008644866 0.007561114 0.0 -0.011089667
0.0014399994 0.024284156 0.006774728 0.020703295 -0.0073681558 0.005521144 -0.006744635 -0.007846395
-0.007823061 -0.0073847645 -0.005069766 -0.005126818 0.0 0.0038281574 -0.005855274 0.0009822283
0.0042930427 -0.007616059 0.0 -0.004963418 -0.006369251 0.007333983 0.009554738 0.0008192016
0.0 0.016421568 0.010969265 0.023424935 -0.006331207 0.0 0.011227825 0.0011369478
0.01333981 0.0058561726 0.016991464 0.005723845 0.0 -0.009029899 0.018493082 0.017336633
-0.005032983 -0.011176134 -0.0034212917 0.011753532 -0.0073077423 0.0041790754 0.015430415 0.02809055
-0.007602007 -0.006137465 0.02765434 -0.0064011435 0.008055404 0.007816956 0.008834672 0.017234406
-0.0134888375 -0.0047029913 -0.0028287391 0.0 0.0 -0.009989423 0.0035100225 -0.010590917
-0.0076842555 -0.0031475634 0.0061473474 0.0076712063 -0.00045079773 0.016916487 -0.00808488 0.0
0.003070562 -0.017676974 0.0 0.0012397887 -0.006735086 0.0068120635 -0.011265841 -0.012405635
-0.009439051 0.00037685453 -0.0095820315 0.0 0.0035966472 0.016152684 0.0091121625 0.020830998
0.0071131405 0.014882527 -0.012585118 -0.009609175 -0.00942333 -0.01597872 -0.008246503 0.019057695
-0.0068975687 -0.0027491888 0.016226007 -0.0077598724 -0.009373334 -0.006004184 -0.017010065 0.0

sequential/dense_1/BiasAdd/ReadVariableOp f4 [3]
00000000: 2b9b 663b c526 1abc 333b e93b
0.0035187702 -0.009408657 0.007117653

sequential/conv2d/BiasAdd/ReadVariableOp f4 [32]
00000000: 4ac5 acbc cdad 97bb 3a60 f73c d710 7ebc
00000010: 3ac7 5ebd 931e 00bc ff17 b83b 2fd1 1e3d
00000020: f87d 89bc 8fbe 15bd 6906 793a bc12 a7bb
00000030: 6c38 d83c 74f9 4bbc 0e8a 94bc 3e3f 96bc
00000040: e455 c33c fcce 023d 6e8e 3fbc 765d 20bd
00000050: 03af 8d3c 2198 033c 56d6 163c d544 06bb
00000060: b26a 88bb dd0f 34bb 8ef1 f8bb 9126 c8bc
00000070: 7fa4 4abd 5480 113c 36d5 843c 3439 083c
-0.021090169 -0.004628873 0.030197252 -0.015506945 -0.054389216 -0.007819789 0.005618095 0.03877371
-0.0167837 -0.036558684 0.00094995514 -0.005098669 0.026394092 -0.012449611 -0.018132236 -0.018340703
0.023844667 0.031935677 -0.011691673 -0.03915163 0.017295366 0.008031876 0.009206375 -0.0020487804
-0.0041631097 -0.0027475276 -0.007597155 -0.024432452 -0.049473282 0.008880693 0.016214948 0.00831442

sequential/conv2d_2/BiasAdd/ReadVariableOp f4 [32]
00000000: d009 c93c b0e1 af3b c227 2bbc 875f 52bb
00000010: 1455 7fba 0cd0 323c 147b d83c ccc9 833c
00000020: 2977 72bc a48f 1cbc 8807 ad3c 9fc4 adbc
00000030: cd75 d3bc b7ac 92bb b63f 5c3c 6dca 0dbc
00000040: cfe8 abbb 32f5 f3bb a323 10bc 7166 ac3a
00000050: 5682 8a39 614f 5a3c 0000 0000 096b da3c
00000060: 77a4 16bc 3334 153c c8f1 53bb 3eef e43b
00000070: f88d 05bc 957f e1bb 490b 8bbc 9879 2ebc
0.024540812 0.00536748 -0.010446491 -0.0032100396 -0.00097401557 0.01091386 0.026425876 0.016087435
-0.014798918 -0.009555731 0.021121755 -0.02121192 -0.025813008 -0.0044761556 0.013442924 -0.008654219
-0.005246259 -0.007445001 -0.008797559 0.0013153089 0.0002641852 0.0133245895 0.0 0.026662366
-0.009194485 0.009106684 -0.0032340158 0.0069865277 -0.008151524 -0.006881664 -0.016973155 -0.010649107

sequential/conv2d_1/BiasAdd/ReadVariableOp f4 [32]
00000000: badd aebb 5a1b b5ba fe71 38bc c935 cb3b
00000010: 1119 4d3c b31a 89bc 24d9 10bc b84d 1dbc
00000020: 2620 e6bb 1b0a 28bd 32c1 a1ba af66 c0bc
00000030: c88f 24bd 7305 f63c 8cf1 043c b76c 47bb
00000040: 2f26 76bc 74ef a2bc 101a 993c 54d2 e13c
00000050: f2b8 07bb d70e bdbb 58bb acbb 9784 303c
00000060: 0297 39bc d99f ccbc 3ac5 653b 0000 0000
00000070: 8fc9 d7bc a8ea 743c 5957 a9bc 73b7 d43c
-0.0053364905 -0.0013817356 -0.011257647 0.00620148 0.012518183 -0.016736364 -0.008840833 -0.009601049
-0.0070228754 -0.041025262 -0.0012340902 -0.023486463 -0.040176183 0.030031895 0.00811423 -0.003042979
-0.015023752 -0.01988957 0.018689185 0.027566113 -0.0020709601 -0.0057695913 -0.0052713566 0.010773799
-0.011327507 -0.024978565 0.0035060183 0.0 -0.026341228 0.014948525 -0.020671533 0.025966382

sequential/dense/MatMul f4 [128, 128]
00000000: 5cb1 193e 4cf4 9eba e0b0 7ebd f05e c93d
00000010: 4e01 9a3d e2e1 153e b89a 383e c5c2 163e
00000020: 8c90 a0bd 0bd5 003e 1d2f 8ebd 1d0d b8bd
00000030: 7ea0 153e d790 07be 89a9 9fbd 00b7 833c
00000040: 70ed f3bd 532b 92bd 137f f93d dc1d 8f3d
00000050: 97e4 fbbc ca0f 25be 1c72 64bd aa9a f43d
00000060: 3308 5fbc 115d a3bd 306e 28bd df77 babd
00000070: 2a74 fe3d 23aa 0fbe 666b 95bd f675 e3bd
00000080: 8aab 423d 4d6f 0c3e 6ead eebd 1ef6 0f3e
00000090: 7ca5 c63d 24a5 203e af39 8a3d 501e 2a3e
000000a0: 5895 8e3d b72c 1f3c 717e 553d 9860 5a3d
000000b0: eef2 efbd 02b1 1abe 6e8e 943b ec7f 17be
000000c0: 4b5f f0bd 08d2 e83d 1a42 14bc ad7a 02be
000000d0: 347e d4bd 3e61 b5bd d278 eb3d a073 063e
000000e0: 9261 34bd 28fb b73d aac7 ecbd 3958 9cbd
000000f0: 91de 81bd 195b e33d 39b9 d0bc c967 3abd
00000100: 725e 1f3e b0a2 82bd 42e9 80bd aac9 e7bd
00000110: 0a38 7f3d 223d 9d3d 9545 043e e0e8 f83d
00000120: ec2a d7bd 0539 0b3c 2cf4 9b3d fb3c 55bc
00000130: 0bd8 edbc 408c 81bc 9d76 133e c0bf ca3d
00000140: 97fe 953d dd3a b93b 7663 e0bd b63c 73bd
00000150: 0621 b43c 6ae7 4cbe 72f2 cabd 969b 64bd
00000160: 78e7 c7bd 4c89 1e3e 7375 e83d aef7 c9bd
00000170: ae50 e53d 02ec 78bc 371d fd3c a4ed 31bd
00000180: e053 b2bd 4d32 a13c 360d abbd ec3c e63d
00000190: f01c 043e d58b 26bd a5ed 443e a9e7 bfbd
000001a0: cc1c 1fbd 45b3 10be d078 013d 9a1b a63d
000001b0: 9686 073e 7565 903d b0eb f93d de89 9dbd
000001c0: d408 85bc bde3 e5bd bacb 013e 23dc 15bd
000001d0: 5518 163d 44fe c63d 3056 01bc 593c 26bd
000001e0: 11e7 debd 9af4 a63c cdd2 0cbe 94b2 58bd
000001f0: 829c b93d 7681 d23c 6d7a 14be bc21 b5bd
00000200: 966e 8abd 7a95 f9bd 1306 adbd 6352 333d
00000210: 4f80 c43d 8052 183e c09b 46bd b881 83bd
00000220: 1927 b23d b24d c03d d817 9cbd 48cd e43d
00000230: 2be7 153e 60e4 ba3d 2610 19be 618f 053e
00000240: a5fa e23d d698 8dbd 0ddb b4bd c7b1 f6bc
00000250: b937 d7bc 6aaa 0b3e 5025 943c 262c 083e
00000260: cf99 f63d 23e3 a5bc 744e f3bc a3b6 91bd
00000270: 26de f03d 67d6 0d3e 2486 e83d cec4 afbd
00000280: f6b2 4e3c e4ca 023e e6b4 6d3c c1cb 83bc
00000290: 8b78 73bd f7b5 c9bc a9eb d13d f467 cdbc
000002a0: d0ff 49bd 7cb2 d5bd 7dd8 ffbd 04f2 7e3d
000002b0: 06a7 d03d 17ee 193e 3398 053d 80ed 4abb
000002c0: e3dc 943d ea76 93bc 0028 3ebb e0c1 ff3d
000002d0: 200a 9dbd 508a b7bc 730c debd 231b d23c
000002e0: 54b9 9f3d 2b36 003e 55c2 863d 25a0 933c
000002f0: 3312 1e3d 75d4 e7bd f2f5 8ebd 648c e73d
00000300: 6c8e 71bd a2be 63bb ec76 0b3d 9260 87bd
00000310: 6349 8f3d 099c 92bb f17a 003c b41c c13d
00000320: 802f e43c 81e9 bdbd dc97 00be 9ea3 1e3e
00000330: aa27 e63d 6e45 c23d 1d7e e5bc 384a a23d
00000340: dd06 cd3b 66bd adbb 04f2 133e 0d00 dbbc
00000350: dabe f3bc ed04 8b3d eb73 edbd cd0e c33d
00000360: 7931 313d 2a1a 13be 5d57 68bd d73a f0bd
00000370: 8611 f7bd fe3b 633d a744 8b3c c573 b4bd
00000380: 3e76 c2bd 7eb5 2b3d a4d3 bd3c 9de4 373c
00000390: e6c7 b0bd cb7e 1dbe 7361 3cbe b0d2 193e
000003a0: 9cf3 c53d d4d0 fb3b 99d5 71bd c100 0d3c
000003b0: ebe6 61bd e5dd 013e c977 25bb 7753 6fbd
000003c0: c240 ccbd e651 fd3d c8d0 c13d 3d6a 9abd
000003d0: 08e4 68bd bad3 49bd 856f 0e3e 2922 30bd
000003e0: 29b6 88bc 9028 563d 55a4 263e 487b b1bb
000003f0: 8c72 03be 6643 843d 3c03 9e3d a32b 88bd
0.15009063 -0.001212725 -0.0621804 0.09832561 0.0751978 0.14636949 0.1802777 0.14722736
-0.0784007 0.1258127 -0.0694258 -0.08986876 0.14612004 -0.13238846 -0.07796008 0.016078472
-0.11910522 -0.0713717 0.121824406 0.06988117 -0.030748649 -0.16119304 -0.055772886 0.11943562
-0.013612795 -0.079767354 -0.041120708 -0.09104895 0.124245 -0.14029746 -0.07295875 -0.11106484
0.047526874 0.13714333 -0.11654173 0.1405873 0.096995324 0.15687996 0.067492835 0.16613126
0.06962079 0.009715251 0.052122537 0.053314775 -0.11716257 -0.15106586 0.0045335805 -0.14794892
-0.11736926 0.11368185 -0.009048963 -0.1274211 -0.10375634 -0.08856438 0.11497654 0.13130045
-0.044038363 0.08983451 -0.115615204 -0.07634015 -0.06341279 0.1110136 -0.025478946 -0.045509133
0.15563372 -0.063786864 -0.062944904 -0.11317761 0.062309302 0.07677676 0.12917168 0.121537924
-0.105062336 0.008497481 0.076149315 -0.013015027 -0.029033681 -0.015813947 0.14400716 0.09899855
0.0732395 0.005652769 -0.10956471 -0.05938407 0.021988403 -0.20010152 -0.09909524 -0.05581244
-0.09760946 0.15482062 0.11350527 -0.09861694 0.11197029 -0.015192987 0.03089772 -0.043439522
-0.08707404 0.019677306 -0.08352129 0.11242089 0.12901664 -0.040660698 0.19231279 -0.093703575
-0.038845822 -0.14130886 0.031609356 0.08110733 0.13234934 0.070506014 0.12203157 -0.07692312
-0.016239561 -0.11225078 0.12675372 -0.03658689 0.0366443 0.09716466 -0.007894084 -0.040584896
-0.10883916 0.020380307 -0.13752289 -0.05290468 0.090630546 0.025696497 -0.14499827 -0.08844325
-0.06759374 -0.121867135 -0.08448424 0.043779742 0.095947854 0.14875221 -0.04848838 -0.06421226
0.086988635 0.09389819 -0.07621735 0.11171967 0.14638965 0.0912559 -0.14947566 0.13042976
0.11082963 -0.06913917 -0.08830843 -0.030114068 -0.026271688 0.13639227 0.018084198 0.13298091
0.120410554 -0.020249909 -0.029700495 -0.07114913 0.117611215 0.13851319 0.1135371 -0.085824594
0.01261591 0.12772709 0.014508462 -0.016088368 -0.05944113 -0.0246229 0.10250027 -0.025073983
-0.049316227 -0.10434434 -0.12492464 0.062242523 0.10188107 0.1503223 0.03261585 -0.0030964315
0.07268693 -0.018001039 -0.002901554 0.124881506 -0.07667947 -0.02240482 -0.10842218 0.025647705
0.077990204 0.12520663 0.06580035 0.018020699 0.038591575 -0.1131982 -0.06980504 0.11306074
-0.058973715 -0.0034751077 0.03404896 -0.06610216 0.06996419 -0.0044741672 0.0078418115 0.09429303
0.027854681 -0.09273053 -0.1255793 0.15492103 0.11238034 0.09485899 -0.028014237 0.07924312
0.0062569217 -0.005302119 0.1444779 -0.026733423 -0.029754091 0.06788049 -0.11594375 0.095243074
0.04326007 -0.1436545 -0.05672394 -0.11729973 -0.12063889 0.055477135 0.01700051 -0.08811144
-0.09495209 0.04192113 0.023172207 0.011223939 -0.086318776 -0.15380399 -0.18396549 0.15021777
0.096656054 0.0076848064 -0.059041593 0.008606137 -0.05515186 0.12682302 -0.00252484 -0.058429208
-0.09973289 0.123691365 0.0946365 -0.075397946 -0.056858093 -0.049274184 0.13909729 -0.043001328
-0.016688423 0.052284777 0.16273625 -0.0054163076 -0.12836665 0.06458168 0.07715461 -0.06648948

sequential/dense_1/MatMul f4 [3, 128]
00000000: 505e efbd 505e 533e 9a33 39be b8f1 613e
00000010: b075 2abe 2186 823d 2c01 113d 51ae a1bd
00000020: bb96 d0bd 85af 5c3d da93 8abd 4e6e 883d
00000030: cab1 c2bc 51c3 14be 1948 84bc 5bb5 293e
00000040: cbb8 21be 0049 38bd eda0 6e3e 1739 a0bc
00000050: 79d4 0dbe f3c9 fdbd 3875 953c 7266 82bc
00000060: bad7 46bd 5a0c 3e3e 206b 463d 2e71 813e
00000070: 464e 86bd 718d a0bc 8570 14bd 1d12 953d
00000080: c0b1 91bd f6c0 493e 6e03 0f3e 484c 4abe
00000090: 5422 383d 09c9 07be c35f 28bb 25f6 563e
000000a0: 6c59 fa3c 017c d33d 7018 52bd 0a7c e23d
000000b0: 49d4 29bc 0599 c03d 0d28 72be e6b8 f6bd
000000c0: 3e0c edbd d96d b0bd e470 233e 505e 033e
000000d0: 4679 1bbe 794b 263e cc7d cb3d 8333 e43d
000000e0: b2bf 2b3e e73d c13c e2dc 03be b30b d2bd
000000f0: 42ac 16be 93fc 19be c166 4b3e 5ba3 b93d
00000100: 5fc7 d73c 4167 debd 9ec9 9c3d 240a 7abe
00000110: 7aa1 22bd cd2d abbd c2b8 83bd 90c0 38bd
00000120: 6ac8 f53d 0686 b03d 670e 0e3e a524 24be
00000130: 3a92 833c 030d 55be 3326 033e 5739 2c3e
00000140: c17b ef3d fa8f df3d 38bf 6b3d 8caa 07be
00000150: 3974 553e 521b b9bd bb81 68be 0252 b83d
00000160: 7394 d23c e182 97bc 5b94 103e fa34 1cbe
00000170: 6ce9 08be f777 d9bd d147 0cbe 5ae4 56be
00000180: 6465 063e 294f 1d3d 665d ee3d 543b 0d3e
00000190: 22be 5fbe 90ad ea3c 8264 03be fd1c 00be
000001a0: 126d 0d3c 13f7 d6bd e280 f8bd bcfd 433d
000001b0: 5435 e4bd 264a 503e 2c61 913c 2b62 453e
000001c0: 1db5 25be 3269 8ebd 45a4 213e ea18 0d3e
000001d0: ce85 cd3d 2bc7 d13d 05d4 21bd d82a 04be
000001e0: 11e3 d7bc 2db8 87bd 3663 53be d3be 4ebe
000001f0: e0b4 483e bdad 413e 37d7 693d 85dd 303e
00000200: 3d85 19be 1cac 983d d497 9c3d b10b 27be
00000210: c038 223c 023d 3d3d 98a6 76be 76b8 223e
00000220: b00f 3dbe c74c ecbd 833a 29be 79f0 90bd
00000230: 42f6 11be 2c30 5a3c e4fd 24bd 7a31 843d
00000240: 51bb a23d eb5b 553e 59d0 eb3d c53a 2cbd
00000250: f4fb 04be 5bc3 03be dd9f 1e3e dc43 783c
00000260: e2bd 4f3e 20ee 39be daaa a5bd 1ba7 2e3e
00000270: cb37 c9bd b9a8 f73c 433f ddbd c1fa f33d
00000280: ddf4 8a3e 53a4 fb3d bc00 ca3d c391 2abe
00000290: dab9 01be 6fdb 753e 926f 4e3e 676c 1fbd
000002a0: c6f8 cfbc 25ab 573d e494 14bd 8ab0 423e
000002b0: 420d c7bd 00e9 99bd 5706 5ebd 65f3 02be
000002c0: 5c04 183d a923 f4ba d6f8 39be ad42 983c
000002d0: 5e9a b6bd ae6c 31be 6f0b 6dbe f572 b8bd
000002e0: a028 4bbe 473c c83d 144f 43be 8c48 fd3d
000002f0: e29f 8a3d da78 003e cf8d ab3d 071a 6fbe
00000300: e0d5 1f3c f1f2 29bd 5b8a cf3d e5c7 653e
00000310: 5e62 233c e8bf 353e 043c e6bd ffce 28be
00000320: 1a52 363e 8c3a c4bc c225 5dbe 4b04 95bd
00000330: a326 d7bd 01af 2f3d fb4a 85bd fa1b 58be
00000340: ae62 65bd d507 583e f94a 16be aa74 1dbe
00000350: fe04 eb3d 6a51 3d3e 1ec4 e43d ca5f 03bb
00000360: ca34 71bd ab13 f03d d411 68bd e188 8d3d
00000370: 9ea0 093e ba87 42be 17b4 523c cce9 773d
00000380: 9542 dc3c 637a 9c3d eaaf a53d 06e3 28be
00000390: 5f28 3abd c00c 323d cb4d 17be 099d 253d
000003a0: 83d3 5b3d 2684 c93d bf6e 923d 6c6c 2fbd
000003b0: e53d 94bb 3dba fd3c 5d3a 57be 8b83 40bd
000003c0: 250e 3ebe eaba 76be c2af 5c3e 8b1c 1a3e
000003d0: f6fd ab3d 0dad 3fbe 62a8 483e 6411 82be
000003e0: c2c7 c73d 3a45 0b3e 2ca8 513e 191f 08bc
000003f0: 5dc0 10be 68f5 09be bb9d aebd 34c3 a7bd
-0.116879106 0.20641446 -0.1808609 0.22064865 -0.16646457 0.06373239 0.03540151 -0.07894576
-0.101849996 0.053878326 -0.06766482 0.06661664 -0.023766417 -0.14527632 -0.01614766 0.16573088
-0.15793149 -0.044991493 0.23303576 -0.019558473 -0.13850583 -0.123920344 0.01824437 -0.01591799
-0.048545577 0.18559399 0.048442006 0.25281662 -0.06557898 -0.019598695 -0.03624012 0.072788455
-0.07113981 0.19702515 0.13966152 -0.19755661 0.044954613 -0.13260283 -0.0025691844 0.20992334
0.030560218 0.10326386 -0.051292837 0.11058815 -0.010365554 0.09404186 -0.2364809 -0.12046985
-0.11574601 -0.08614702 0.15961033 0.12828946 -0.15182981 0.16239728 0.09936103 0.111426376
0.16772345 0.023589088 -0.12877229 -0.10256138 -0.14714149 -0.15037756 0.19863416 0.09064361
0.026340185 -0.10859538 0.07655643 -0.24417931 -0.039704777 -0.08358345 -0.06431724 -0.045105517
0.120011166 0.08619313 0.13872682 -0.16029604 0.016060937 -0.20805745 0.1280754 0.16818748
0.11693526 0.10916133 0.057555407 -0.13248652 0.20845117 -0.09038414 -0.22705738 0.09000017
0.025705552 -0.018495025 0.14119093 -0.15254584 -0.13370293 -0.106185846 -0.13699271 -0.20985547
0.13124615 0.03840557 0.11638908 0.13792163 -0.21849874 0.028647214 -0.1283131 -0.12511058
0.008631961 -0.104963444 -0.121339574 0.0478494 -0.11142984 0.20340785 0.01774653 0.1927573
-0.1618237 -0.06953658 0.1578532 0.13779035 0.10035287 0.102430664 -0.03950884 -0.12906969
-0.02635339 -0.066269256 -0.20643315 -0.20189981 0.19600248 0.18913932 0.05709001 0.17272003
-0.14992233 0.07454702 0.076461464 -0.16313054 0.009901226 0.04620076 -0.24086988 0.15890679
-0.18463016 -0.115380816 -0.16526227 -0.070771165 -0.14254096 0.013317149 -0.04028119 0.064547494
0.07945884 0.20835845 0.115143485 -0.042048234 -0.12986737 -0.12867491 0.1549067 0.015152898
0.20287278 -0.18157244 -0.08089228 0.17055933 -0.09825095 0.03023182 -0.10803082 0.11913062
0.2713994 0.12287202 0.09863421 -0.16657166 -0.12668553 0.24009489 0.20159748 -0.03892174
-0.02538718 0.05265345 -0.036274806 0.19012657 -0.097193256 -0.07515144 -0.054205265 -0.1278816
0.037113532 -0.001862635 -0.1816133 0.018586481 -0.08916162 -0.17326614 -0.23148893 -0.09006301
-0.19839716 0.09777122 -0.19073135 0.12367353 0.067687765 0.12546101 0.08376657 -0.23349772
0.009755582 -0.041491453 0.10133811 0.22439535 0.009972183 0.17748988 -0.11241916 -0.16485213
0.17804757 -0.023953699 -0.21596435 -0.072762094 -0.10505416 0.042891506 -0.06508442 -0.21104422
-0.05600231 0.21096738 -0.14677037 -0.15376535 0.114755616 0.18488088 0.11170219 -0.0020046108
-0.058888234 0.11722501 -0.056657627 0.06910873 0.13440177 -0.18997088 0.01286032 0.0605257
0.026887218 0.07640531 0.080901936 -0.16492853 -0.045448657 0.04346919 -0.1477577 0.040432964
0.05366851 0.098396584 0.071500294 -0.04282801 -0.00452398 0.030972594 -0.21018358 -0.04700045
-0.18560083 -0.2409474 0.21551421 0.15049951 0.083980486 -0.18718357 0.19595483 -0.25403893
0.09754898 0.13600627 0.20474309 -0.0083081955 -0.14135881 -0.13472521 -0.085261784 -0.08191529

sequential/conv2d_1/Conv2D f4 [32, 3, 3, 32]
00000000: b528 f33c f259 c3bd 51fb 3abd d9c7 b03c
00000010: e3e4 42bd 8891 b13d 5b13 3abd 763f 113c
00000020: e75d 46bd 9592 aa3d 4bf9 59bd 8a43 8dbd
00000030: 1257 0abc a510 513d 9045 a73b 15ef c03d
00000040: 09ef adbd 37e2 b4bd 50b1 373d 28ce 143c
00000050: 0798 91bd 1189 41bd 186d 9abd d138 cbbd
00000060: ba6c 1fbd f3df 3ebd b517 223d 66a9 303d
00000070: ed1c 4c3d e4bd 323d 306c 71bc 108f 9cbc
00000080: b526 5bbd 1056 4b3d 64a5 b2bd 11da 0fbd
00000090: 67ae b6bc a0d8 d0bb 28a6 413d af15 a3bd
000000a0: 76cb d93c c9b6 8fbc 60f7 d73c d88d 5a3d
000000b0: 19da c6bd 8ae1 8b3c c0aa 46bc 4a60 a83c
000000c0: 2113 b33d 6033 21bc 4889 7f3d a0c7 553c
000000d0: 2308 cd3c 286f 9d3d 772c 63bd dc60 873c
000000e0: 46f0 08bc 81d8 a13c b269 3a3d 3a45 44bd
000000f0: 2d55 77ba c25a f73c d045 58bc 7421 86bc
00000100: 0096 9d39 f6ec 40bd cc29 84bd f5a6 babc
00000110: 7716 4ebd 781b ac3d f0c7 bf3c 8c45 3a3c
00000120: 0557 59bd d24f a4bd f056 fe3b 2c8f d0bd
00000130: 7d6e 0f3d 587b cdbc f6d2 983d 7ede 0d3c
00000140: 6cab 71ba 8860 883d 9036 aa3d 862a 17bd
00000150: 2feb a1bc e50f 25bd 0e3a e5bb 0806 cb3d
00000160: e80b fcbc 12a0 efbb 46a4 b1bd 8ba6 bd3d
00000170: 01ff b63a 71b7 aa3d 4df4 96bd ecd9 363d
00000180: dd98 adbd efde 90bd b4b1 0c3d e5ae 15bd
00000190: c107 403d 3859 04bd 1c8f 983d 59e0 9c3d
000001a0: 3613 333d 640d df3c 5c1d d4bc d2e5 09bd
000001b0: ce69 a53c 32ac cbbc a0dd 9c3d 541a 8a3d
000001c0: dcea 383d 1b79 58bd ca16 9d3d 0047 48bc
000001d0: 4a37 153d 7095 fb3b 15de afbd 5b9b 27bd
000001e0: aa85 83bd 4788 8ebd 8eda d7bd 6ee3 3e3d
000001f0: 9086 093c ddfb d0bd 4ef7 9cbd 98cd cb3d
00000200: 3962 3aba 6c5c f3bc 1431 7e3d 031e 973d
00000210: f057 09bd 88b8 2d3c e801 e13c 779c 4b3d
00000220: afc6 0c3d e43f 9f3d 668b 873d 008c 06bc
00000230: 381b a7bd 2da8 363d 90de 6bbc 8c39 95bd
00000240: c102 fc3c 0431 883d 6068 073c 6675 ba3d
00000250: 9332 3a3b da93 0dbd 6729 99bd a8d1 c73c
00000260: 17bb 90bd 9f23 69bd e1a4 53bd 8c20 e3bc
00000270: 3655 cabd cbf6 8e3d 405f ad3d 4280 993d
00000280: 97f9 6bbc 94a8 c1bd 1896 99bc 3928 87bc
00000290: cf0d cfbd 344d 263d e528 b0bd e280 7abd
000002a0: f0e0 c8bd dd41 863d fc73 a83c 38fd afbc
000002b0: cec5 c0bd ca5d 613d b25b 5dbd 01e9 893d
000002c0: 6d72 95bd f855 be3c b255 1fbd 307c 87bd
000002d0: 4123 f8bc 10b3 9e3b c645 dabb 4b3f ccbd
000002e0: 7808 3e3d 4758 7a3d e1cf 33bd 99a5 62bd
000002f0: a0d4 91bd 2e8e 543d 3e21 41bd 9e5f 29bd
00000300: aea3 efbc b4ee bd3d 0f55 a8bd eb5e 943d
00000310: 1c90 9abd a0fb 523b 843c 79bd 7d7b 47bb
00000320: 0b1b c2bd 1757 403d 3827 7d3d 42dc b8bd
00000330: 3f6b a03c 9fe8 69bc 9973 b7bd f3cc 0ebd
00000340: 1404 a8bd a450 cb3d 62ec a6bd 786a 983d
00000350: 037a 813b 687b 95bc 4753 b9bd f18b 56bd
00000360: c734 ae3d dbb8 943d 3ff1 003a 1c63 d1bc
00000370: affc 9c3d a746 2bbd 0495 b13d c4c7 d9bc
00000380: 8685 bfbd 7008 d4bc e076 f93b 1fb3 cc3c
00000390: fd6f 883d cc0d f1bc d0b9 753d 22c4 06bd
000003a0: 4ad7 56bd 7d13 b2bd 88b5 11bc 1056 363d
000003b0: b7b9 64bd af2b e53b 1401 2bbd 074f 873d
000003c0: 631e e8bb e053 533d 80fd 18ba f487 343d
000003d0: f94f 2abd b0a7 05bc 2156 b2b9 1e96 8e3d
000003e0: 5445 aabd bc65 2e3d 6560 b2bd 2a58 363c
000003f0: 9fc4 373c a5d7 d9bd 8456 4cbd 2e72 c53d
0.029682497 -0.0953864 -0.04564983 0.02157967 -0.047581565 0.08670336 -0.045428615 0.008865228
-0.048429396 0.083287396 -0.05321626 -0.06897648 -0.008443611 0.051041264 0.005104728 0.09420601
-0.08492858 -0.088322096 0.044846833 0.009082355 -0.07109075 -0.047249857 -0.07540339 -0.09922946
-0.03892205 -0.046600293 0.03957339 0.0431303 0.049832273 0.043638125 -0.014735267 -0.019111186
-0.05350371 0.049642622 -0.08722952 -0.035120074 -0.022299958 -0.00637348 0.0472776 -0.0796312
0.026586276 -0.017543213 0.026363075 0.05335793 -0.097095676 0.017075319 -0.012125671 0.020553727
0.08743883 -0.009838909 0.06238678 0.013048083 0.025028294 0.07687217 -0.055462327 0.016525678
-0.008358067 0.019756557 0.045510955 -0.047917582 -0.00094349944 0.030194644 -0.013200238 -0.016373374
0.00030057132 -0.047100984 -0.064532846 -0.02278469 -0.050314393 0.08403677 0.023410767 0.01136912
-0.053061504 -0.08023037 0.0077618286 -0.10183558 0.03501748 -0.025083229 0.074621126 0.008659003
-0.0009218964 0.06659037 0.08311188 -0.036905788 -0.019765465 -0.04029836 -0.006995446 0.0991326
-0.030767396 -0.007312783 -0.08673911 0.09260281 0.0013961495 0.0833577 -0.073708154 0.04464142
-0.08476422 -0.07073771 0.03434916 -0.036543746 0.046882395 -0.032311648 0.07449171 0.076599784
0.043719493 0.027228065 -0.025892906 -0.03366644 0.020192053 -0.024862383 0.07659459 0.06743303
0.045145854 -0.05284987 0.07670362 -0.012223959 0.03642968 0.0076777264 -0.08587281 -0.040919643
-0.06421979 -0.069595866 -0.10539733 0.046603613 0.008393899 -0.10204289 -0.07664357 0.09951323
-0.0007109973 -0.029707156 0.062058523 0.07378771 -0.03353113 0.010603078 0.02746673 0.049709763
0.034369167 0.07775858 0.06618385 -0.00821209 -0.081594884 0.04459398 -0.014396325 -0.07286367
0.030763032 0.06649974 0.008264631 0.09104423 0.0028411492 -0.03456483 -0.074786 0.024391964
-0.070669346 -0.056918737 -0.051670913 -0.02772548 -0.09879534 0.06980666 0.08465433 0.07495166
-0.014402769 -0.09455982 -0.018748328 -0.016498672 -0.10110056 0.04060097 -0.0860155 -0.06115807
-0.098085284 0.06555531 0.020563118 -0.021483049 -0.09412728 0.055021085 -0.054042526 0.06733895
-0.072972156 0.023234352 -0.038900085 -0.06615484 -0.030290248 0.0048431233 -0.0066611497 -0.0997301
0.046394795 0.061119344 -0.04389942 -0.055333707 -0.07120633 0.051893406 -0.047150843 -0.041350953
-0.029252853 0.09274045 -0.08219349 0.07244667 -0.07547018 0.0032193437 -0.060848728 -0.0030438595
-0.09477814 0.046958055 0.06180498 -0.09026386 0.019582389 -0.014276653 -0.089575954 -0.034863424
-0.08203903 0.0992749 -0.08150555 0.07442182 0.0039513125 -0.018247321 -0.09049087 -0.052379552
0.0850616 0.07261821 0.0004918761 -0.025559954 0.07665383 -0.041815426 0.086710006 -0.026584513
-0.093516394 -0.02588293 0.007613048 0.024987755 0.06661985 -0.029425524 0.059991658 -0.03290189
-0.05245141 -0.08695123 -0.008893378 0.04451567 -0.055841174 0.006993733 -0.041749075 0.0660687
-0.0070837005 0.05159366 -0.0005836114 0.044074968 -0.041580174 -0.008157656 -0.00034014977 0.06962226
-0.083140045 0.04257749 -0.08709792 0.011129418 0.011216312 -0.10636834 -0.049887195 0.09640919

sequential/conv2d_2/Conv2D f4 [32, 3, 3, 32]
00000000: fe3b 1abd 83f8 88bd 7fc6 a53d b29a 4f3d
00000010: d211 9bba bb2b a33d 7a6b 963b 0fdc 60bd
00000020: 174e 823d bda8 bfbd 8bb2 abbb efb9 503d
00000030: b04a 583d 204c 723d e9a5 c73d e152 1c3d
00000040: ddc5 d3bd 2a4d 513d 745e b7bd a129 693b
00000050: cbbf bc3b 58f4 343c 3c0a 1a3d 7d8c f4bc
00000060: 2d13 8b3c a8ce db3b 4aaa cdbc 008c 06b9
00000070: 38e1 25bd 1880 8f3d 596f 8dbd 5526 0e3d
00000080: 8015 fc3c 698f 15bd c88b c7bc e673 d7bc
00000090: fdad 813d 954b 53bd 0cd0 3d3c c84a ce3c
000000a0: bc97 983d ea72 bf3c bd10 9fbc 1fbe 0a3d
000000b0: d098 99bd 6823 cabc f4d1 5c3d 1c86 d43d
000000c0: 24a7 91bd 4e83 113d 0613 183b 3877 8b3d
000000d0: a439 d9bd cf00 67bd c910 2f3d 0b15 16bd
000000e0: 4003 66bc b910 c4bd bd14 d1bc 8c27 973d
000000f0: 50ca 90bd 2d64 bdbd af42 373d f7ef 1e3d
00000100: 3be0 97bd be13 143b ad68 19bd f160 863d
00000110: d219 24bd a406 433c 423a a9bb 5cd5 543d
00000120: c471 bf3d 5b99 abbd 05ae b6bd 406a d23d
00000130: e9a7 6bbd 64be e13c e25b 753d 5fc3 a5bd
00000140: 79ab 0f3c 2c17 2f3d 68ac c0bc 36ea 6e3d
00000150: 2f4e b43d 58e5 13bc 1007 71bc d5f9 733d
00000160: f709 073c ba80 d73d 0bcb 4bbd 8cb8 8e3c
00000170: 260a 1fbd 29fa a8bd c758 163d 2cf6 b13d
00000180: 8227 863d f12b 513d cdef 563c d265 933b
00000190: 0567 9ebd ce45 5d3d f286 d3bd 8e17 bebd
000001a0: 4c52 a6bd f90c 16bd d36b 8cbd b0eb 95bd
000001b0: 808e c0bd f61a ec3b 8e6a 2d3d e9c4 5ebd
000001c0: 5cd3 f1bc 49be d03c 9e3f 1ebe 441f be3d
000001d0: 7a41 a9bd b1ea d73c 003c aab8 a81f 05be
000001e0: 866e 0ebd 98e9 b43c 6400 57bc 04e2 52bd
000001f0: 59db 05bd cc06 813a a9c1 4fbd 32fe f13c
00000200: 56db c7bd 7082 b03d 95ff 04be c45b a13c
00000210: 482f de3c 31a3 cbbd 57f5 bf3d 6216 c13d
00000220: f59d 76bd 20e7 593d efa9 85bd 8217 34bd
00000230: 3b2c cdbc 7716 483c 8f35 463d 2580 eeba
00000240: f823 223c ae86 8abc 33c3 933b 19f6 6b3d
00000250: 803b e1bc 081b 713d a467 383d 0687 c9ba
00000260: eb96 bcbd 48c8 283d b05e 7d3d 4c29 7c3d
00000270: 81e3 d4bd 760e b43c 2c07 703d d8f8 cd3d
00000280: 884c 72bc 3122 f73d aec2 a03d 4d3a 50bd
00000290: 92db 063d a2ce 893d a82c 993d 8003 3e3c
000002a0: f0e7 bfbd 36b3 873d 1a6b ab3d ef08 0cbd
000002b0: d6d9 3e3c a1a3 4a3d 08e0 dc3d a906 79bd
000002c0: 6c79 efbc 4807 9bbc 217e 9fbb ee7e fc3d
000002d0: c40f d639 4ce0 d4bc 804c 633d ce38 af3d
000002e0: b49f 5d3c b135 743c ac45 acbd edfd 26bd
000002f0: 9fd8 c0bd ad7b 033d 3f17 e9bb 7c1a 6c3d
00000300: 7887 e03c 1fa9 043e d2c0 c5bd 1179 2fbc
00000310: e973 cebd b482 053d 490d 0bbd fbd7 82bc
00000320: 5e84 733d f8d4 c0bd c7f8 683d 832c 0abd
00000330: 82f1 da3c a190 983c 79f5 4f3c 05e2 0fbc
00000340: 5036 a1bd 2584 d6bd d098 fdbc 7c73 a73c
00000350: 5982 45bd 4cd4 b3bd 4388 87bd a57d c0bb
00000360: b6ca b33d bea9 763d f54e fdbc 6c44 423d
00000370: dff9 adbc e73e 8c3d 9f70 8d3d a525 563d
00000380: d25e 65bd 69fb 1abc 15cb 56bc fb55 b2bd
00000390: 7967 a9bd 1ddc 0c3c 5546 0a3d 283c 213c
000003a0: 7572 7cbc 3f8a 88bd 657c 503d b671 1e3d
000003b0: d30e 603d 9fd1 2f3d 7750 c53d fae6 733c
000003c0: 170b 02be 3a7d 8ebd 4be1 e33c a63c 9e3d
000003d0: 674d e1bd 071f 84bd 737c 783c 0671 483d
000003e0: 09e9 a8bd bd36 b8bd b5ab 9abc 4623 8d3d
000003f0: b9c1 003d fffb 153d b9ba babd d07a ca3d
-0.03765487 -0.06688025 0.08094501 0.05068464 -0.0011830872 0.07967325 0.004590449 -0.054897364
0.06362551 -0.09358356 -0.00523979 0.05095857 0.052805603 0.05915463 0.09748442 0.038164977
-0.10340474 0.05109898 -0.089535624 0.0035577791 0.005760168 0.011044584 0.037607417 -0.029852146
0.016976917 0.006707985 -0.025105614 -0.0001283139 -0.04049799 0.07006854 -0.069060035 0.034704525
0.03077197 -0.03651372 -0.024358645 -0.026300382 0.06332014 -0.051585753 0.011585247 0.025182143
0.07450816 0.023370225 -0.019417161 0.03387272 -0.0749985 -0.024675086 0.053911164 0.10377142
-0.07111958 0.035525613 0.0023204698 0.068098485 -0.10606697 -0.056397256 0.042740617 -0.036641162
-0.014038861 -0.09573502 -0.025522584 0.0738059 -0.07069838 -0.09247623 0.04474133 0.038803067
-0.074158154 0.0022594775 -0.037453342 0.06561459 -0.040063687 0.011903439 -0.0051644156 0.051961288
0.09347871 -0.083788596 -0.0891991 0.10274172 -0.05753318 0.027556606 0.05990208 -0.08093905
0.00876891 0.042746708 -0.02351971 0.05832883 0.08803975 -0.009026848 -0.0147111565 0.05956443
0.008242122 0.105225995 -0.049754184 0.017421983 -0.038828038 -0.08250839 0.03670576 0.08689532
0.06550504 0.051067296 0.013118696 0.004498222 -0.07734493 0.05402165 -0.10328473 -0.092818365
-0.08121166 -0.036633465 -0.06856503 -0.073203444 -0.0940218 0.0072053624 0.042337947 -0.054387007
-0.02951973 0.02548136 -0.15453956 0.09283307 -0.08264442 0.026357027 -8.1174076e-05 -0.13000357
-0.034773372 0.022084042 -0.013122652 -0.051485077 -0.03267989 0.0009843945 -0.050721798 0.029540155
-0.09758632 0.08618629 -0.12988122 0.019697078 0.027122155 -0.09943236 0.09372967 0.09428097
-0.060209233 0.053198934 -0.06526553 -0.04396773 -0.025045505 0.012212387 0.04839092 -0.0018196149
0.009896271 -0.016909923 0.0045093535 0.057607744 -0.027494192 0.05886367 0.045020714 -0.0015375323
-0.09208473 0.041206628 0.06185788 0.06156282 -0.103949554 0.021979552 0.05860059 0.10057229
-0.014788754 0.12067068 0.07849632 -0.05083685 0.032924242 0.06728865 0.07479221 0.011597514
-0.093704104 0.06625979 0.083700374 -0.034188207 0.011648616 0.049472455 0.10784918 -0.060797367
-0.029232703 -0.01892437 -0.0048673307 0.123288974 0.00040829007 -0.02598586 0.055492878 0.085557565
0.013526846 0.014905379 -0.08411726 -0.040769506 -0.09416317 0.03210037 -0.007113367 0.057642445
0.027408347 0.1295514 -0.09655918 -0.010710017 -0.10080702 0.03259535 -0.033948217 -0.015972128
0.059452407 -0.094156206 0.056877878 -0.033733856 0.026726488 0.018623652 0.012692803 -0.008781915
-0.078716874 -0.10474423 -0.030956656 0.02044081 -0.048220012 -0.08780727 -0.06617787 -0.005874353
0.087788984 0.060220473 -0.030921439 0.047428533 -0.021237312 0.06847935 0.069062464 0.052281994
-0.05599863 -0.009459355 -0.013109942 -0.08707806 -0.08271689 0.008597401 0.03375848 0.0098410025
-0.015408148 -0.06666993 0.050899882 0.038682662 0.054701637 0.04292452 0.09634488 0.014886612
-0.12699543 -0.06957479 0.027817389 0.077264115 -0.110010915 -0.064512305 0.01516639 0.048935913
-0.08247573 -0.089948155 -0.018880704 0.068914935 0.03143475 0.036617275 -0.09117646 0.09886706

sequential/conv2d/Relu;sequential/conv2d/BiasAdd;sequential/conv2d_2/Conv2D;sequential/conv2d/Conv2D;sequential/conv2d/BiasAdd/ReadVariableOp f4 [32, 3, 3, 3]
00000000: c076 b0b9 16f7 0b3a 542d 6939 e7f5 1cb6
00000010: 6616 b8b9 903e ebb8 ed35 a6b9 d661 0f3a
00000020: c154 68b9 d98e 123a b66d a2b9 11a3 59b9
00000030: f72b c5b9 18f4 0c3a f619 4eb9 5c2b 8f39
00000040: f3b9 033a 5b32 10ba dbaa 62b9 c37a cd39
00000050: b9f5 fcb9 6a5a fc39 589d fb39 75be 0fba
00000060: 09fd 133a 6452 99b9 9b3f e539 256a 84b9
00000070: 0e6a a0b9 3358 213a 55eb e3b9 5a2e 8a39
00000080: d262 adb9 9203 b538 8d0f 133a dcb4 abb6
00000090: 97d2 083a 9ac9 c739 6f5d 273a 2564 64b9
000000a0: 9328 cd39 70b1 9bb9 9765 69b9 2ca1 e939
000000b0: 498f 2d3a 5836 07ba 51e5 3fb7 5666 2e3a
000000c0: dfb6 8db9 f32c 1039 eb07 053a 9279 e0b9
000000d0: d8c1 4039 e975 363a 7144 d639 6a20 96b9
000000e0: 5d5e 1a3a 976e 8ab9 d6a2 ad39 4f0a 2fb9
000000f0: ce2f 5939 6f45 c239 7e33 95b8 1e46 dfb8
00000100: d5f2 adb9 d1f2 9db7 80f0 03b9 4eda b8b9
00000110: e017 84b9 2ca8 8539 5634 013a a802 a638
00000120: 31e0 aab9 9169 e6b8 6e17 4339 9ac3 eab9
00000130: 1754 a639 ec4c acb8 5cd2 f9b9 909d fa39
00000140: 0c7e 01ba 898a 8339 f85d e839 6db8 183a
00000150: 9ced a139 a646 d739 2bcd 8e39 af91 00ba
00000160: 6de5 32b9 e2c4 e539 ae0f 8db9 10ab 22b9
00000170: af6f 8a39 22a2 ddb9 5ab0 7739 27c7 02b7
00000180: 3849 ac39 4064 d938 a093 0a3a d337 86b8
00000190: 3784 72b9 d8f7 b8b8 7fe8 a4b9 8354 c4b8
000001a0: 3330 fcb9 4a6f 9839 b59e 97b9 367c 8cb9
000001b0: 4cef a338 bcdf b539 c6f5 d339 4831 0139
000001c0: 9e28 4f39 52f9 5d39 1d55 97b9 e098 da39
000001d0: 7b07 5537 3d32 efb9 f90b 81b8 564c 343a
000001e0: 90a0 5739 61ca 7c39 36b4 4b39 baed dc39
000001f0: 014e 6db9 3768 72b8 502e 6d39 e917 ac39
00000200: 1757 b239 26b2 4339 50ac ba38 942a f339
00000210: f97b 5ab9 a2f1 f639 b204 c4b9 40ad 87b9
00000220: e47b 83b9 bb59 e4b9 6a1b 01ba cd3f 8439
00000230: 818b 06ba ea89 22b9 d825 6bb9 a68c 87b9
00000240: d87a e2b9 8761 8639 85df 1539 551c f8b9
00000250: 0e74 75b9 b7c6 b838 093e 08ba bf9c 8f39
00000260: 8615 99b9 9b8f af39 df6e a638 9051 16ba
00000270: 2d47 9838 491c bb39 d1f3 c439 0b8f cab9
00000280: 886f e4b8 6c51 eab9 9bab 96b8 cc0b e439
00000290: bf53 103a 63f1 bcb9 39ca de39 fee3 9e39
000002a0: d144 4237 08c3 4339 5d6d e737 69c2 b0b9
000002b0: ac0b a4b9 760b 103a e60f 25b9 387d 93b9
000002c0: 702e 0d3a de9b 6039 e835 043a 7a74 9139
000002d0: 123a df39 423d a1b9 4681 1239 8625 c4b9
000002e0: b097 f1b9 5132 8c39 a104 3237 25e0 8036
000002f0: 11aa 5435 2e27 1f38 22bc 8ab9 12f6 9239
00000300: e984 50b9 4fda f339 1275 f938 bf1f 073a
00000310: 5ac9 ccb9 e624 77b8 1fe0 0039 4ca1 0dba
00000320: 76eb c2b7 2cf8 64b9 5ef6 0dba 34e3 b039
00000330: 1d9f 20b9 3c1d 4238 acdc c7b9 e535 1439
00000340: 59d8 1cb9 6d68 ef39 143f d538 550b df39
00000350: 4df5 b7b9 353f 003a ff5c 4eb8 3d9f 04ba
00000360: 2e6b a6b8 f9b7 a739 4cbf 063a 445a 06ba
00000370: 69dd 9db9 9658 c239 d295 0f3a 1165 0739
00000380: 79fb 033a dc90 f039 9a00 1639 6891 aeb9
00000390: 6a8a b036 48ef 25ba 4cf2 08b8 8d4b 2739
000003a0: 88aa bc36 55d7 123a 6703 cdb9 895a f8b9
000003b0: 95d9 0dba ed91 22b9 a2be 3139 96b3 56b8
000003c0: 6534 ee39 1f92 8e39 2c5b 9bb9 c222 e139
000003d0: c877 f538 8ebc 13ba 7d31 a039 5baa c3b9
000003e0: e57a a8b9 2de9 1338 72f7 0f3a 5fed c339
000003f0: 35d1 98b7 7b5c 0e3a ca0f e939 f650 b4b9
-0.00033657812 0.0005339248 0.00022237498 -2.3388945e-06 -0.00035111903 -0.000112173264 -0.00031702165 0.0005469596
-0.00022156817 0.0005590744 -0.0003098079 -0.0002075548 -0.00037607524 0.0005376949 -0.00019655362 0.0002730739
0.0005024962 -0.00055006676 -0.00021616688 0.00039192112 -0.00048248263 0.0004813255 0.0004799168 -0.00054833974
0.000564531 -0.0002924382 0.00043725673 -0.00025256086 -0.00030596595 0.00061548053 -0.0004347215 0.00026355946
-0.00033070758 8.6314176e-05 0.0005609922 -5.117252e-06 0.00052193686 0.00038106443 0.0006384467 -0.00021781081
0.00039130877 -0.00029696105 -0.00022258457 0.00044561306 0.00066207774 -0.0005157939 -1.1437879e-05 0.00066528225
-0.00027029865 0.00013749655 0.0005074727 -0.00042815186 0.0001838276 0.0006960319 0.00040868254 -0.0002863438
0.0005888695 -0.00026403807 0.00033118454 -0.00016693141 0.00020712541 0.00037054296 -7.114465e-05 -0.00010646529
-0.00033178055 -1.8828929e-05 -0.00012582727 -0.00035257865 -0.0002519479 0.00025493035 0.0004928758 7.9159916e-05
-0.00032591962 -0.00010986918 0.00018605377 -0.00044777693 0.0003172464 -8.215927e-05 -0.0004764971 0.0004780111
-0.0004939742 0.00025089484 0.000443205 0.00058258214 0.00030885346 0.00041060633 0.00027237213 -0.0004904521
-0.0001706087 0.00043824973 -0.00026905298 -0.0001551325 0.00026404622 -0.00042273203 0.00023621452 -7.794973e-06
0.0003286095 0.00010366039 0.000528628 -6.400016e-05 -0.00023128172 -8.819968e-05 -0.0003145374 -9.36175e-05
-0.00048101097 0.00029074616 -0.0002891921 -0.00026795425 7.817018e-05 0.00034689705 0.00040428172 0.00012320757
0.0001975619 0.00021169081 -0.0002886438 0.000416941 1.2697531e-05 -0.00045623063 -6.1534294e-05 0.000687783
0.00020563812 0.00024107985 0.00019426722 0.0004213879 -0.0002263114 -5.7794354e-05 0.00022619334 0.0003282421
0.00034015693 0.00018663015 8.901267e-05 0.00046380295 -0.00020836284 0.00047100807 -0.00037387531 -0.00025878288
-0.00025078573 -0.00043554403 -0.00049250445 0.00025224537 -0.0005132482 -0.00015500901 -0.00022425444 -0.00025853998
-0.00043197605 0.00025631135 0.00014293015 -0.00047323355 -0.00023408254 8.810817e-05 -0.0005197232 0.0002739187
-0.0002919847 0.00033485595 7.936148e-05 -0.00057341997 7.261182e-05 0.00035688494 0.0003756569 -0.00038635018
-0.000108926615 -0.00044692622 -7.1845214e-05 0.00043496338 0.0005505643 -0.00036038 0.00042493807 0.00030305976
1.1579324e-05 0.00018669304 2.7588272e-05 -0.00033714183 -0.00031289214 0.0005494872 -0.00015741549 -0.0002813132
0.0005385643 0.0002142037 0.0005043433 0.00027743337 0.0004257714 -0.00030753954 0.00013971803 -0.0003741199
-0.00046080118 0.0002674037 1.06107045e-05 3.840791e-06 7.9223634e-07 3.7945043e-05 -0.0002646158 0.00028030627
-0.00019885939 0.00046511224 0.00011895051 0.0005154572 -0.0003905993 -5.8923753e-05 0.00012290523 -0.0005402758
-2.3236247e-05 -0.00021836226 -0.0005415435 0.00033738615 -0.00015318063 4.628043e-05 -0.0003812065 0.00014134457
-0.00014957915 0.00045663436 0.00010168381 0.00042542318 -0.00035087243 0.0004892231 -4.9200837e-05 -0.0005059129
-7.9354606e-05 0.00031989792 0.00051402 -0.0005125145 -0.00030110337 0.00037068565 0.0005477342 0.00012912253
0.0005034726 0.00045884296 0.00014305339 -0.00033296202 5.2613223e-06 -0.0006329906 -3.2650583e-05 0.00015954506
5.622689e-06 0.0005601545 -0.00039103182 -0.000473697 -0.00054111454 -0.00015503886 0.00016951052 -5.118883e-05
0.00045433934 0.0002719322 -0.00029631832 0.0004294124 0.000117048214 -0.0005635702 0.0003055445 -0.00037320223
-0.0003213502 3.5264693e-05 0.00054918893 0.00037370154 -1.8217232e-05 0.0005430651 0.00044452987 -0.00034392596
